models/rnn_stock_model.npz (npz, 10451 bytes, 5 tensors)

weight_xh f8 [32, 5]
0	0xbfbe804826b94702	-0.11914492555049708
1	0xbfc0252ddcc48924	-0.12613461761163436
2	0xbfbe3b220a91d647	-0.1180897975735543
3	0xbfbc21653c79ad87	-0.10988457418868879
4	0xbfb3ba8399030132	-0.07706472859991179
5	0x3fbfa03daa4ecdac	0.123538831786212
6	0x3fc2359859975aff	0.14226059317180526
7	0x3fc12874b9197c7f	0.13404711759628538
8	0x3fbf49fb665b0cc0	0.12222262619893609
9	0x3fb61a80ed31891b	0.08634191313607113
10	0xbfc0794811b50c30	-0.12870121826753822
11	0xbfc08cc28d6db634	-0.12929565339747884
12	0xbfbf426ae28a1c58	-0.12210720091580762
13	0xbfc2754e70661191	-0.14420490730493588
14	0xbfb918e4fdd88bdf	-0.09803610989960941
15	0xbfc0090a559958b3	-0.12527589015616555
16	0xbfc0af2e7aa77e8f	-0.13034611691454187
17	0xbfbdf04c4ec2780d	-0.11694790766566161
18	0xbfc098e80555c44b	-0.12966633091449106
19	0xbfb69892b6643b1c	-0.08826558068197382
20	0x3fc18b2f9dc932c3	0.13706011967078355
21	0x3fbeec0cfdf2b9ff	0.12078934860139866
22	0x3fbfa12d38805531	0.12355311040331142
23	0x3fbbf12490072e26	0.10914829746541752
24	0x3fb13dd04646092c	0.06734945026076805
25	0xbfbf993fff6db975	-0.12343215929079128
26	0xbfc17ff81a667fd1	-0.13671780861932217
27	0xbfbf0d00444e97e5	-0.12129213016177649
28	0xbfc0d9aa2a91d16a	-0.13164259985536414
29	0xbfb4c5cf65d9ecc2	-0.0811433433208775
30	0x3fbcef62cd093760	0.11302773957978962
31	0x3fc1b14306e4bb62	0.13822210156055365
32	0x3fbe906e2caf3ba3	0.11939133253984706
33	0x3fbc0689f4bebad0	0.10947477555485396
34	0x3fb434f64c2a8c0d	0.07893313750769
35	0xbfc1ae13e3b0bb95	-0.13812492959683867
36	0xbfbfd965938d12aa	-0.12441096165009449
37	0xbfc2b039112c3cd5	-0.14600289667621405
38	0xbfc1f3ae41529545	-0.14024904431895827
39	0xbfb4d9b67bef865e	-0.08144703412792739
40	0xbfbd2fa1ac2bcb1a	-0.11400804952044688
41	0xbfbec913f141ed80	-0.12025570526195928
42	0xbfbf7d7fb53072ec	-0.1230087106091095
43	0xbfc00bff304ee73b	-0.1253661142234764
44	0xbfb7264196d93619	-0.09042749340843449
45	0x3fbb90cd2cff897d	0.10767824505413688
46	0x3fbc6176e498d150	0.11086218911151957
47	0x3fc01e59a9f168aa	0.1259262161063977
48	0x3fbe8858727ded62	0.1192679671784638
49	0x3fa70251189c7dd3	0.04493955064230772
50	0xbfbf6e33f4202c1b	-0.12277531347369612
51	0xbfc0b2a191dee908	-0.13045138952822577
52	0xbfc10ede5e14923d	-0.13326625436561015
53	0xbfbef5622676633b	-0.12093175353073786
54	0xbfb264482502c433	-0.07184267905792367
55	0x3fc0dbadffc98f35	0.13170409192672997
56	0x3fbd5a299fac65c9	0.11465702198292783
57	0x3fbeaa6cd6b18d8a	0.1197879814295019
58	0x3fc0397cfdb45a67	0.12675440204539543
59	0x3fb570e4b80d7ca6	0.08375386708711349
60	0xbfbf4cd04d5fe2ae	-0.12226583375003017
61	0xbfbeb6fc157003d6	-0.11997962497117895
62	0xbfc08372d0aec8f6	-0.12901148976886362
63	0xbfc0b1ca6e75b0ff	-0.13042574304143525
64	0xbfaf3088ffc3a994	-0.06091716882822876
65	0x3fc196809fdc7c3d	0.13740546994901762
66	0x3fbfadbf1dc05740	0.12374491192198622
67	0x3fc131c27fe84cf6	0.13433104749183372
68	0x3fc071cb8dca1378	0.1284727518397195
69	0x3fb1ba6b1abfc0f5	0.06925076869061171
70	0x3fbeb23f500d1339	0.11990733818408907
71	0x3fc0ef1b47dfb00c	0.1322969532915298
72	0x3fbdc990b9cb2e9f	0.11635689292887229
73	0x3fc1021ad82cab24	0.13287673526186794
74	0x3fa67325d9041a39	0.0438472583210125
75	0x3fc0df28417fe22a	0.13181021879405935
76	0x3fc0014d0f1f8d30	0.1250397037357316
77	0x3fbefca867c79d6e	0.12104275258717731
78	0x3fc00feb0b6bf6de	0.12548578317357956
79	0x3fae4c5459bebc62	0.05917609782715584
80	0x3fbdbcdc69371e59	0.1161630398629482
81	0x3fbf60b8a32ed295	0.12256959899861848
82	0x3fc11a5456c91640	0.13361601102421794
83	0x3fbd39f581fb6150	0.1141656343783144
84	0x3faf33a1070809be	0.060940773113560706
85	0xbfbfffe7b7624b5b	-0.1249985525812866
86	0xbfbc89456d576ece	-0.11146959228011186
87	0xbfbdff419dd31c05	-0.11717615225926188
88	0xbfc029897a61cd33	-0.1262676093643705
89	0xbfb0a9c6b3bfd790	-0.06509057892239256
90	0xbfbba88acc082b58	-0.10804049950836025
91	0xbfb994005936e4cf	-0.09991457155310289
92	0xbfbdd341c8c18f1d	-0.11650477553626755
93	0xbfbcfbcef58d04e1	-0.11321729178327501
94	0xbfaf6b71800cc8af	-0.06136660278424821
95	0x3fbb0c1781fed3d6	0.10565325664249711
96	0x3fbfb704d4d36653	0.12388639636937997
97	0x3fbf95712e534779	0.12337405568112371
98	0x3fbf0e7c6f1657d1	0.12131478988734946
99	0x3fb1515d66c080ab	0.06764777906983237
100	0xbfc10836cac3398e	-0.13306317234532766
101	0xbfbfadf5c921fcc9	-0.12374817047565324
102	0xbfbf6fb8f2ae538a	-0.1227984993441408
103	0xbfc05fd382567a37	-0.12792438377523904
104	0xbfb2c56d76d15b5f	-0.07332500601601798
105	0x3fbf26951f8f0489	0.12168247242427034
106	0x3fc18dbf91076bda	0.13713831502431512
107	0x3fbeaca4d6b3e60c	0.11982183686986775
108	0x3fbf057693bafa1b	0.12117711168955518
109	0x3fb1d818974487b5	0.06970361416872957
110	0xbfc264fecb995ebd	-0.14370713178026576
111	0xbfc00e1cca798a43	-0.12543067823851758
112	0xbfbfd8440725861d	-0.124393703217287
113	0xbfb9d6ae611d593d	-0.10093202467883074
114	0xbfb3decfcccccf66	-0.07761858701706856
115	0xbfbe66f01673d4d5	-0.11875820682674328
116	0xbfbf6ef0a2e98287	-0.12278655984256136
117	0xbfc124ddc7200565	-0.1339375707903329
118	0xbfbc827ce0bb9aaa	-0.11136608587876631
119	0xbfb0c9e623a70429	-0.06558073397083376
120	0xbfbe5e6dd0eca101	-0.11862837172214215
121	0xbfc16fba336ee29e	-0.13622214805015614
122	0xbfbced961ec03731	-0.11300028086426718
123	0xbfc21ff0d3bc79d1	-0.14159975374873437
124	0xbfb383cd6ac73237	-0.07622989518058253
125	0x3fc327a5912d9f30	0.14964742268352316
126	0x3fbe50673457ae86	0.1184143545903514
127	0x3fbf61db6393fc0e	0.12258692914109323
128	0x3fc09d6ea91c619c	0.1298044515358584
129	0x3fb42a8b2d6304f7	0.07877416475368536
130	0xbfc1d6f2d1200462	-0.13937220774826914
131	0xbfbfaeadf9973449	-0.12375914901277087
132	0xbfc145cbba3d5bb4	-0.1349424991010132
133	0xbfbec08ea2767add	-0.12012568918587925
134	0xbfb6f896033754cb	-0.0897306211330317
135	0xbfbbc0b0c85f72e2	-0.10840897457041934
136	0xbfc0f1aeb08a7f02	-0.13237556095281638
137	0xbfc0552634becfdf	-0.12759854865509987
138	0xbfbde3733cc1ff50	-0.11675186379761482
139	0xbfb6126aa5a296e8	-0.08621851486040166
140	0xbfbf35dbcee919ef	-0.1219155674126353
141	0xbfbc9c6b44b0f972	-0.11176176478418201
142	0xbfc203a9a6bb18ab	-0.14073677674440907
143	0xbfbf9614550142c2	-0.12338378024402188
144	0xbfb2b557a129aa97	-0.07307956394803693
145	0x3fc0e29d09404de7	0.1319156928226299
146	0x3fbcc4c8fac345e7	0.1123777019704658
147	0x3fbc82e063e71564	0.11137201727895768
148	0x3fc0b00c090f672f	0.1303725284804442
149	0x3fb45f70c4a75a96	0.07958130646816594
150	0xbfbd8e1d43485fbd	-0.11544974224705036
151	0xbfbd77d59d4c61d6	-0.11510977831165489
152	0xbfc0082bd2d79ca2	-0.12524936480551668
153	0xbfbddc88d7a4f9f9	-0.11664634003407305
154	0xbfb01ed83061c6a0	-0.06297064953994402
155	0x3fbdb71a7adfd4e3	0.11607518672811383
156	0x3fc23cf5c7887402	0.14248535387824296
157	0x3fc06fe5405419ca	0.12841478005448287
158	0x3fbcc032a6724ab6	0.11230770648607344
159	0x3fb5acdd1daebc12	0.08466894125625427

weight_hh f8 [32, 32]
0	0x3fc33fe8a5971956	0.1503878410860106
1	0xbfc3fbedec75d58c	-0.15612577482140144
2	0x3fc6b608a2501219	0.1774302284758427
3	0x3fc411f2bf4192c6	0.15679773653677936
4	0xbfc32f6cfcf77ac0	-0.14988481857195346
5	0x3fc577c31c58a8c1	0.16771735080812358
6	0xbfc360d5815b8480	-0.15139263931544988
7	0x3fc7b229bfe008a1	0.1851246058359424
8	0x3fc4b1196778d486	0.16165463974326516
9	0xbfc4a1cf35bf9c33	-0.16118803142964708
10	0x3fc3d462d9147df6	0.15491901015865012
11	0xbfc5b8ee88a6833a	-0.16970616981873282
12	0x3fc484ad0bd476f7	0.1602989490283375
13	0xbfc453e101992a6e	-0.15880978181879207
14	0xbfc4940cf1746852	-0.16076814451008886
15	0xbfc3f9cacf004a11	-0.156060553622027
16	0xbfc458f61d445094	-0.15896488598867065
17	0x3fc637106395fae8	0.17355542051878747
18	0x3fc34f34ec532b9c	0.15085469760228143
19	0xbfc0eda9ba7ded52	-0.13225289922761846
20	0x3fc595afeca5177d	0.16863059096266034
21	0xbfc5fbdee363e3c5	-0.17174898245846584
22	0x3fc333848f35f26d	0.15000969879828877
23	0x3fc5456ad2cbfd89	0.16618094723524404
24	0x3fc4a078f83824c5	0.16114723320087002
25	0xbfc404b90957e7cb	-0.15639412838191755
26	0x3fc5d751a8d4c55b	0.17063351386745293
27	0x3fc4571412242e2d	0.1589074219303809
28	0x3fc37789230c93f1	0.15208543979056757
29	0xbfc6ad365304da66	-0.17716101697597536
30	0x3fc346b61e43d2f8	0.15059544065265817
31	0xbfc3ff15891d4b37	-0.15622204966583705
32	0xbfc4394ee4b02ae0	-0.15799890676893025
33	0x3fc37d515db239d4	0.15226189684876934
34	0xbfc51f0601bdbda1	-0.16500926098840998
35	0xbfc4b75ade54c158	-0.16184554916390925
36	0x3fc348f416d0c730	0.15066386331596382
37	0xbfc4d3ee20bd3950	-0.1627175960406455
38	0x3fc47f336e555f0e	0.1601318634736732
39	0xbfc6da7ef25afe98	-0.17854296525728297
40	0xbfc49efe2e37d330	-0.1611020780252601
41	0x3fc436e9c283ff86	0.15792581556160828
42	0xbfc3a9e0fb4a99d9	-0.15362179060066586
43	0x3fc6113a75ef5efa	0.17240076788470288
44	0xbfc66b1c193f96af	-0.1751437304766816
45	0x3fc3a32f03e4110e	0.1534174698828185
46	0x3fc5a7d981f4180c	0.16918486447701786
47	0x3fc5c6d50e1210ed	0.1701303785995444
48	0x3fc50123bfa3afad	0.16409727914230868
49	0xbfbece57af2abc99	-0.12033603693520191
50	0xbfc2bc60ae877809	-0.14637383005077734
51	0x3fc5da7ea80d70c6	0.17073043065727783
52	0xbfc39f1aa5afd5ca	-0.15329297151735793
53	0x3fc5c96d899619ff	0.17020959108431552
54	0xbfc5003acee08edc	-0.16406951047348783
55	0xbfc3b5daff287585	-0.15398728808296994
56	0xbfc5fb53cec2d3b7	-0.17173240276102117
57	0x3fc4b76bbedb20c7	0.1618475610650931
58	0xbfc5f87bfea5bca1	-0.17164564069705526
59	0xbfc4559bfbdad206	-0.15886258885952048
60	0xbfc19b88d4e6facd	-0.13755903621309643
61	0x3fc263678069bf48	0.14365857858819653
62	0xbfc2d30a92ac212f	-0.14706546937692042
63	0x3fc31f0fa99ccabe	0.14938541204317873
64	0x3fc39085897ad239	0.15284795010451704
65	0xbfc35eeb1ed3d12c	-0.15133418088192607
66	0x3fc51c1847958184	0.1649198865443503
67	0x3fc382efb077f3a8	0.15243335835103022
68	0xbfc4ffc18b99da1e	-0.16405505482153243
69	0x3fc5932688f1a365	0.16855317770685044
70	0xbfc505adba8c1aee	-0.1642357979655666
71	0x3fc55c27f24a6e8f	0.1668748791752148
72	0x3fc4d1b69968492a	0.16264994135469496
73	0xbfc3f18d65478a52	-0.15580909199987275
74	0x3fc7792fd1ae5c11	0.18338582743010126
75	0xbfc395c987ffaf76	-0.15300864353718752
76	0x3fc1bb95cf53a818	0.13853714583757504
77	0xbfc447141b54b14c	-0.15841914495957565
78	0xbfc584810366dcf9	-0.16810619989494294
79	0xbfc3b52bf6cdb1e9	-0.15396642256690932
80	0xbfc506035a59da95	-0.16424600516957769
81	0x3fc3d98d3df76199	0.15507665181827404
82	0x3fc3ba0377ca8088	0.15411418294116097
83	0xbfc2f48378aad6c3	-0.1480869616695398
84	0x3fc2fbda6495916c	0.1483109465726885
85	0xbfc50ea365a0cc59	-0.16450922453222708
86	0x3fc3a9b6dc1b08c3	0.15361676928848142
87	0x3fc3853a26d87cfb	0.1525032701183376
88	0x3fc6eef35b3f8a44	0.17916719394186675
89	0xbfc42e690262fbc9	-0.1576663266805254
90	0x3fc36b5f9a20b614	0.15171427751322197
91	0x3fc5483051a373d2	0.16626552568678094
92	0x3fc6f56d4707577a	0.17936483352849192
93	0xbfc322ebbff74ca6	-0.1495032012304353
94	0x3fc163556fe08a54	0.13584392512082621
95	0xbfc57d05a5d7e725	-0.16787787053891026
96	0x3fc572c2e0889f36	0.16756473506506503
97	0xbfc544024d453459	-0.16613796971288045
98	0x3fc52c69f693de66	0.1654179052345512
99	0x3fc57ba64d2970e9	0.1678359867827404
100	0xbfc4ed73888111e5	-0.1634964386486352
101	0x3fc43accc9969c35	0.15804443209819544
102	0xbfc7e6ae3b57c087	-0.18672731301876785
103	0x3fc3548ceac66f00	0.15101777518872694
104	0x3fc40e3340e63d32	0.15668335598864186
105	0xbfc4784d39b38a48	-0.15992131535957044
106	0x3fc66d0c376b0f97	0.17520287233321305
107	0xbfc5da7c173db696	-0.1707301248056196
108	0x3fc36458d7f77ad9	0.1514998487973205
109	0xbfc3f453b6d57a7f	-0.15589376857220213
110	0xbfc270fd1fbe9164	-0.1440731434823973
111	0xbfc63ebf256d54bc	-0.17378987624639375
112	0xbfc22ff937679603	-0.14208903508476575
113	0x3fc3aed6a3e39e6f	0.15377314569854003
114	0x3fc1983d235ea617	0.1374584601119728
115	0xbfc323fa249fd453	-0.149535434611297
116	0x3fc46391e54b8142	0.1592886323551373
117	0xbfc502a544336977	-0.16414323644751125
118	0x3fc3fefe4b37af80	0.15621927902918387
119	0x3fc37ff76ba86145	0.15234272724843315
120	0x3fc46cf91a5ee845	0.159575593830427
121	0xbfc373c3c79288b3	-0.15197036022897734
122	0x3fc6a50570c053f1	0.17691104894097934
123	0x3fc22e6007bdcf8d	0.14204025629043962
124	0x3fc69cc1b40c9204	0.1766588334222804
125	0xbfc695b3bd94a1b7	-0.17644354588379738
126	0x3fc2df91f8212689	0.14744782081315957
127	0xbfc3b736260f97a0	-0.15402867182200186
128	0xbfc430936abe0ad4	-0.15773241722134534
129	0x3fc4357053e760a8	0.15788082215181487
130	0xbfc581820d6fdf04	-0.16801477104285578
131	0xbfc5c4e397fd6cd5	-0.17007107659706003
132	0x3fc3b85d00cf2af8	0.15406382121576434
133	0xbfc3df2043f4891a	-0.15524676626325445
134	0x3fc4f1a2db1d03bd	0.1636241502656314
135	0xbfc62a6b4ab139a7	-0.17316952845653796
136	0xbfc3e0edc4494837	-0.1553017815045352
137	0x3fc429b45f2e749c	0.1575227226975685
138	0xbfc3f449b783838b	-0.15589257679587507
139	0x3fc585708df030da	0.16813475542620077
140	0xbfc5b9233bac3704	-0.16971245206553232
141	0x3fc413a259d9a318	0.15684918772901635
142	0x3fc5ebb9725e41c0	0.17125623783478083
143	0x3fc5d782d70eaa05	0.17063937664836729
144	0x3fc4661b8eae4c19	0.15936607806051553
145	0xbfc4448d92be8bb6	-0.1583420721554753
146	0xbfc21f3915de0104	-0.1415778500340893
147	0x3fc3b63d185fcbb1	0.1539989823355348
148	0xbfc41cf280f05e71	-0.15713340087744457
149	0x3fc4a7ac424c068e	0.16136697041661247
150	0xbfc4e46367ba1ab2	-0.16321985783379983
151	0xbfc34a5994ae0d91	-0.1507064796424911
152	0xbfc3e228f8a910aa	-0.1553393568193589
153	0x3fc5fe908a8a9930	0.17183119549481196
154	0xbfc393a91464598a	-0.15294373985006998
155	0xbfc4762a4d7a07f6	-0.15985611708680353
156	0xbfc3b8c2ec1d92c9	-0.15407597092703032
157	0x3fc461641b3103f2	0.15922213866909335
158	0xbfc387897d12d6c0	-0.15257376296147207
159	0x3fc4f203a5888b5d	0.16363568861660385
160	0x3fc476c9bece3198	0.1598751241366585
161	0xbfc42456e4607cc9	-0.1573589911576845
162	0x3fc41b4f55373393	0.1570834318248698
163	0x3fc7b4d089f26df8	0.18520552383129973
164	0xbfc58b2dad28fc57	-0.16830988841136005
165	0x3fc34a95b7da7654	0.1507136485787891
166	0xbfc2c835a5303a21	-0.14673491063918312
167	0x3fc6378a62d4c341	0.17356996370065228
168	0x3fc5b3d9e015c15b	0.16955111924790853
169	0xbfc298362c013eae	-0.14527012966799674
170	0x3fc4da66f1fc7665	0.162915104062381
171	0xbfc5b1cdb53ca0a2	-0.16948863362745664
172	0x3fc4952e7b67b759	0.16080266023294135
173	0xbfc5887bcc386807	-0.16822764846511992
174	0xbfc392cf43c3b2c0	-0.1529177742844663
175	0xbfc520b7aa658165	-0.16506095714704397
176	0xbfc53f76c12cef08	-0.1659992640724044
177	0x3fc3c530cb804bfd	0.15445527969913533
178	0x3fc3e583e883b9f0	0.15544175008058359
179	0xbfc4f6d581210376	-0.16378277592778162
180	0x3fc39e76ae2e9adc	0.15327342514975484
181	0xbfc4775657b3ce43	-0.15989188463537304
182	0x3fc4bdcab4fe61ca	0.16204198682386411
183	0x3fc3dd7f6bc3c3b4	0.15519707452724918
184	0x3fc436055b80f45f	0.1578985878749419
185	0xbfc48ad934d22215	-0.1604873187936994
186	0x3fc34e90e5370050	0.15083514396792674
187	0x3fc2799da55003f0	0.144336419791244
188	0x3fc37b9c56b45901	0.15220979913346613
189	0xbfc4e121bb88bde7	-0.1631204763120728
190	0x3fc3fd72a649b7d2	0.15617211455849983
191	0xbfc31d6bd767f649	-0.14933536546588957
192	0xbfc33760dd8aeb9a	-0.15012751405251096
193	0x3fc48cb13941aab9	0.16054358764389123
194	0xbfc500828ee41d5b	-0.16407806374648257
195	0xbfc62acde2fffc6b	-0.17318128189069468
196	0x3fc435e5c029e8fc	0.1578948200511333
197	0xbfc5148dfb7d5ec4	-0.1646897771813568
198	0x3fc4a93f60be042c	0.1614150259374879
199	0xbfc611750e55b031	-0.17240775299012648
200	0xbfc41e2c9dc5ed5e	-0.15717084602133985
201	0x3fc57f82b7ee523e	0.16795381527903602
202	0xbfc4e1dc9a93e7c7	-0.16314275310270274
203	0x3fc4fd800f574eaf	0.16398621319841797
204	0xbfc388117adaef4b	-0.15258997439183938
205	0x3fc407cb143e150d	0.15648783195880647
206	0x3fc4ff44a199581f	0.16404016390396323
207	0x3fc4d32bc03276a7	0.1626944244825854
208	0x3fc44f2c30d8ecf6	0.15866615662694245
209	0xbfc52b0672707ac5	-0.1653755244050982
210	0xbfc37e04547a71a8	-0.15228323101918062
211	0x3fc4de610aafec3d	0.16303647062145102
212	0xbfc2b55e8ebad591	-0.14615995377759508
213	0x3fc5e480e6b99696	0.1710358740412416
214	0xbfc19e2671752804	-0.13763886012958448
215	0xbfc570c827b4c21e	-0.16750432909749774
216	0xbfc3935db4be625c	-0.1529347546136418
217	0x3fc4f0a046accca6	0.16359332514693853
218	0xbfc22f36d32ff366	-0.14206586181526432
219	0xbfc548e939334906	-0.16628756802544603
220	0xbfc56df151a8c1aa	-0.1674176834799373
221	0x3fc3c5ba8cc17e5a	0.1544717013630244
222	0xbfc66cca98a2d7a6	-0.1751950497907135
223	0x3fc42ffe339c42c8	0.1577146293643834
224	0x3fc362edb7a0943c	0.15145656076598069
225	0xbfc4c8a2e5174d63	-0.16237293420872864
226	0x3fc5aeb5d627be60	0.16939423519896746
227	0x3fc7810361ce2cdb	0.18362467075016906
228	0xbfc30f1b7d7761ad	-0.14889854074750755
229	0x3fc42c6f2331bd83	0.15760602205726224
230	0xbfc56d778a0e1a4d	-0.16740316620799192
231	0x3fc5f0218d54b27e	0.17139071846886006
232	0x3fc3459722617b5d	0.15056122950314946
233	0xbfc0ee6fd6b140d0	-0.13227651579882727
234	0x3fc6717696b23a4a	0.17533762319767937
235	0xbfc531fda80f6d7f	-0.16558809953754047
236	0x3fc254e34320310e	0.1432155683290905
237	0xbfc2fe172bd21be3	-0.14837922706303094
238	0xbfc5055793153cfd	-0.16422552758965728
239	0xbfc36bf55f636c68	-0.15173213155398746
240	0xbfc63d50839569b4	-0.1737461702821982
241	0x3fc36aba812b1da5	0.1516945963578397
242	0x3fc33f67da1cd466	0.15037248754530025
243	0xbfc4312bcae261ea	-0.15775058180294305
244	0x3fc425c8cb874374	0.15740308702381933
245	0xbfc408c76a260b77	-0.15651791270292012
246	0x3fc319e244b55a3e	0.1492274127474093
247	0x3fc45ebbfe5997b2	0.1591410629218309
248	0x3fc507ed3d875056	0.16430440429997145
249	0xbfc43f6c1d89e4f5	-0.1581854957801522
250	0x3fc6291bb8d81d94	0.1731295254287316
251	0x3fc2dbf4808d7c6e	0.1473374965380318
252	0x3fc2796aba5760ef	0.14433034990975765
253	0xbfc305183600cea2	-0.14859297406075195
254	0x3fc3ede9fec3c369	0.15569806041414871
255	0xbfc609263fac9eda	-0.17215421780678392

weight_hy f8 [1, 32]
0	0xbfffdb7daf1d59cb	-1.9910866585174627
1	0x400005e7c1ba9c5e	2.0028834471773242
2	0xc0000ada41017050	-2.005299098831564
3	0xbfffeeb6f299921f	-1.9957799412305872
4	0x3fffd5d37f7cac26	1.9897036533318526
5	0xc00004617953af8f	-2.0021390417732117
6	0x3fffc6ebec14c071	1.9860648366848432
7	0xc00011750a7e3980	-2.0085240192194647
8	0xbffff5813a97a57a	-1.9974376953853992
9	0x3fff86bb03ca07f8	1.9703931949629787
10	0xc0000ba64c803130	-2.0056882835980545
11	0x3fffe4add7fcefb0	1.9933298527748597
12	0xbfffcdfd44dbe553	-1.987790364246696
13	0x3ffff01bc73457d5	1.9961202413010046
14	0x3fffd5b395b9a41c	1.989673218597324
15	0x40000553f6866749	2.0026015529410057
16	0x3fffc17fb9ebcfd3	1.9847409498734023
17	0xbfffc921e61b8f7b	-1.9866045940952677
18	0xbfff77adf1b68875	-1.9667186204829055
19	0x3fffcd2264ab4663	1.9875816280731662
20	0xbfffd5bc44e242a2	-1.9896815005087451
21	0x3fffd968911880ee	1.9905782382775743
22	0xbfffe67ee863d96e	-1.9937733724342155
23	0xbfffe0d5dd9a2e8a	-1.9923914581621909
24	0xc00008aecc10f10a	-2.0042396490736154
25	0x4000125b6e751e3b	2.0089634541980366
26	0xc0000ed5d01c4c0c	-2.007243753303106
27	0xbfffdd66213fa586	-1.9915524767660329
28	0xbfffe4e12e07843d	-1.9933788106939254
29	0x3fffee934a0334f2	1.9957459345926591
30	0xbfffa1ec7c3a3783	-1.9770321705468354
31	0x400009f0dd76c414	2.0048539449567304

bias_h f8 [32, 1]
0	0xbfca7a8c03c5862c	-0.20686483558806523
1	0x3fcaa35476d6e386	0.20810943415360955
2	0xbfca426f7584b483	-0.20515244711114997
3	0xbfc95ea03d9c22f1	-0.19820025451942727
4	0x3fca1ff52f1d8aa9	0.20410027313763138
5	0xbfca7d6ffab567d5	-0.20695304624206182
6	0x3fc951d2266b3edc	0.1978094756691381
7	0xbfca9cc54a0f15dc	-0.20790926090391693
8	0xbfc9c888228a5bc4	-0.20143224417253525
9	0x3fc8adf40f584a38	0.19280863522779312
10	0xbfcaaf288d838014	-0.2084704104408962
11	0x3fc9fb30caf717ae	0.2029782286683121
12	0xbfc912d4afbd75e1	-0.19588717061098662
13	0x3fca4429a66bf235	0.20520516038949813
14	0x3fc8f079bf39ffcd	0.1948387321208415
15	0x3fca4ef20e5acabb	0.20553422642622884
16	0x3fc94aedbe2ddd7c	0.1975991419419464
17	0xbfc9aa2cd5c71bba	-0.20050583303802033
18	0xbfc74ef9b660a2e9	-0.18209763913298296
19	0x3fc9d3be13e83f9f	0.2017743680194117
20	0xbfc93df4e8ef89ed	-0.19720326780141254
21	0x3fc9154420baef38	0.19596149061350743
22	0xbfca6d3a18a37238	-0.2064583416275967
23	0xbfca00f6c972f04d	-0.20315441929222047
24	0xbfcac79fbb0639a8	-0.2092170394138979
25	0x3fcafa2b9256942b	0.21075958867473452
26	0xbfca51162cc39dc2	-0.20559956727741563
27	0xbfca6719703a697a	-0.2062713430394288
28	0xbfca5c9f6edd25b1	-0.20595162308954465
29	0x3fca59fe160f6609	0.20587135388522906
30	0xbfc94dcb06b6e596	-0.1976865561280589
31	0x3fca439fde78301e	0.20518873560683998

bias_y f8 [1, 1]
0	0x400000a78abfad56	2.0003195609803397
